…
","timestamp":1672282481154,"user_tz":-540,"elapsed":456,"user":{"displayName":"정소이","userId":"01240750198175937684"}}},"execution_count":7,"outputs":[{"output_type":"stream","name":"stdout","text":["Model: \"model\"\n","_________________________________________________________________\n"," Layer (type)                Output Shape              Param #   \n","=================================================================\n"," input_1 (InputLayer)        [(None, 180, 180, 3)]     0         \n","                                                                 \n"," rescaling (Rescaling)       (None, 180, 180, 3)       0         \n","                                                                 \n"," conv2d (Conv2D)             (None, 178, 178, 32)      896       \n","                                                                 \n"," max_pooling2d (MaxPooling2D  (None, 89, 89, 32)       0         \n"," )                                                               \n","                                                                 \n"," conv2d_1 (Conv2D)           (None, 87, 87, 64)        18496     \n","                                                                 \n"," max_pooling2d_1 (MaxPooling  (None, 43, 43, 64)       0         \n"," 2D)                                                             \n","                                                                 \n"," conv2d_2 (Conv2D)           (None, 41, 41, 128)       73856     \n","                                                                 \n"," max_pooling2d_2 (MaxPooling  (None, 20, 20, 128)      0         \n"," 2D)                                                             \n","                                                                 \n"," conv2d_3 (Conv2D)           (None, 18, 18, 256)       295168    \n","                                                                 \n"," max_pooling2d_3 (MaxPooling  (None, 9, 9, 256)        0         \n"," 2D)                                                             \n","                                                                 \n"," conv2d_4 (Conv2D)           (None, 7, 7, 256)         590080    \n","                                                                 \n"," flatten (Flatten)           (None, 12544)             0         \n","                                                                 \n"," dense (Dense)               (None, 1)                 12545     \n","                                                                 \n","=================================================================\n","Total params: 991,041\n","Trainable params: 991,041\n","Non-trainable params: 0\n","_________________________________________________________________\n"]}]},{"cell_type":"markdown","source":["#### **04. 모델 훈련 설정하기** \n","\n","\n","\n","*   loss=\"bin
…
