…
2RGB))\n","    plt.show()"]},{"cell_type":"code","execution_count":null,"metadata":{"colab":{"base_uri":"https://localhost:8080/"},"executionInfo":{"elapsed":22994,"status":"ok","timestamp":1672075005317,"user":{"displayName":"Lucy Jun","userId":"14699261721809224327"},"user_tz":-540},"id":"ZpOqFIQPsQ0z","outputId":"c9f66ebc-df1b-41e2-befe-0b7395674038"},"outputs":[{"name":"stdout","output_type":"stream","text":[" GPU isn't used \n"," OpenCV version: 3.2.0\n","mini_batch = 1, batch = 8, time_steps = 1, train = 0 \n","   layer   filters  size/strd(dil)      input                output\n","   0 conv     32       3 x 3/ 1    608 x 608 x   3 ->  608 x 608 x  32 0.639 BF\n","   1 conv     64       3 x 3/ 2    608 x 608 x  32 ->  304 x 304 x  64 3.407 BF\n","   2 conv     64       1 x 1/ 1    304 x 304 x  64 ->  304 x 304 x  64 0.757 BF\n","   3 route  1 \t\t                           ->  304 x 304 x  64 \n","   4 conv     64       1 x 1/ 1    304 x 304 x  64 ->  304 x 304 x  64 0.757 BF\n","   5 conv     32       1 x 1/ 1    304 x 304 x  64 ->  304 x 304 x  32 0.379 BF\n","   6 conv     64       3 x 3/ 1    304 x 304 x  32 ->  304 x 304 x  64 3.407 BF\n","   7 Shortcut Layer: 4,  wt = 0, wn = 0, outputs: 304 x 304 x  64 0.006 BF\n","   8 conv     64       1 x 1/ 1    304 x 304 x  64 ->  304 x 304 x  64 0.757 BF\n","   9 route  8 2 \t                           ->  304 x 304 x 128 \n","  10 conv     64       1 x 1/ 1    304 x 304 x 128 ->  304 x 304 x  64 1.514 BF\n","  11 conv    128       3 x 3/ 2    304 x 304 x  64 ->  152 x 152 x 128 3.407 BF\n","  12 conv     64       1 x 1/ 1    152 x 152 x 128 ->  152 x 152 x  64 0.379 BF\n","  13 route  11 \t\t                           ->  152 x 152 x 128 \n","  14 conv     64       1 x 1/ 1    152 x 152 x 128 ->  152 x 152 x  64 0.379 BF\n","  15 conv     64       1 x 1/ 1    152 x 152 x  64 ->  152 x 152 x  64 0.189 BF\n","  16 conv     64       3 x 3/ 1    152 x 152 x  64 ->  152 x 152 x  64 1.703 BF\n","  17 Shortcut Layer: 14,  wt = 0, wn = 0, outputs: 152 x 152 x  64 0.001 BF\n","  18 conv     64       1 x 1/ 1    152 x 152 x  64 ->  152 x 152 x  64 0.189 BF\n","  19 conv     64       3 x 3/ 1    152 x 152 x  64 ->  152 x 152 x  64 1.703 BF\n","  20 Shortcut Layer: 17,  wt = 0, wn = 0, outputs: 152 x 152 x  64 0.001 BF\n","  21 conv     64       1 x 1/ 1    152 x 152 x  64 ->  152 x 152 x  64 0.189 BF\n","  22 route  21 12 \t                           ->  152 x 152 x 128 \n","  23 conv    128       1 x 1/ 1    152 x 152 x 128 ->  152 x 152 x 128 0.757 BF\n","  24 conv    256       3 x 3/ 2    152 x 152 x 128 ->   76 x  76 x 256 3.407 BF\n","  25 conv    128       1 x 1/ 1     76 x  76 x 256 ->   76 x  76 x 128 0.379 BF\n","  26 route  24 \t\t                           ->   76 x  76 x 256 \n","  27 conv    128       1 x 1/ 1     76 x  76 x 256 ->   76 x  76 x 128 0.379 BF\n","  28 conv    128       1 x 1/ 1     76 x  76 x 128 ->   76 x  76 x 128 0.189 BF\n","  29 conv    128       3 x 3/ 1     76 x  76 x 128 ->   76 x  76 x 128 1.703 BF\n","  30 Shortcut Layer: 27,  wt = 0, wn = 0, outputs:  76 x  76 x 128 0.001 BF\n","  31 conv    128       1 x 1/ 1     76 x  76 x 128 ->   76 x  76 x 128 0.189 BF\n","  32 conv    128       3 x 3/ 1     76 x  76 x 128 ->   76 x  76 x 128 1.703 BF\n","  33 Shortcut Layer: 30,  wt = 0, wn = 0, outputs:  76 x  76 x 128 0.001 BF\n","  34 conv    128       1 x 1/ 1     76 x  76 x 128 ->   76 x  76 x 128 0.189 BF\n","  35 conv    128       3 x 3/ 1     76 x  76 x 128 ->   76 x  76 x 128 1.703 BF\n","  36 Shortcut Layer: 33,  wt = 0, wn = 0, outputs:  76 x  76 x 128 0.001 BF\n","  37 conv    128       1 x 1/ 1     76 x  76 x 128 ->   76 x  76 x 128 0.189 BF\n","  38 conv    128       3 x 3/ 1     76 x  76 x 128 ->   76 x  76 x 128 1.703 BF\n","  39 Shortcut Layer: 36,  wt = 0, wn = 0, outputs:  76 x  76 x 128 0.001 BF\n","  40 conv    128       1 x 1/ 1     76 x  76 x 128 ->   76 x  76 x 128 0.189 BF\n","  41 conv    128       3 x 3/ 1     76 x  76 x 128 ->   76 x  76 x 128 1.703 BF\n","  42 Shortcut Layer: 39,  wt = 0, wn = 0, outputs:  76 x  76 x 128 0.001 BF\n","  43 conv    128       1 x 1/ 1     76 x  76 x 128 ->   76 x  76 x 128 0.189 BF\n","  44 conv    128       3 x 3/ 1     76 x  76 x 128 ->   76 x  76 x 128 1.703 BF\n","  45 Shortcut Layer: 42,  wt = 0, wn = 0, outputs:  76 x  76 x 128 0.001 BF\n","  46 conv    128       1 x 1/ 1     76 x  76 x 128 ->   76 x  76 x 128 0.189 BF\n","  47 conv    128       3 x 3/ 1     76 x  76 x 128 ->   76 x  76 x 128 1.703 BF\n","  48 Shortcut Layer: 45,  wt = 0, wn = 0, outputs:  76 x  76 x 128 0.001 BF\n","  49 conv    128       1 x 1/ 1     76 x  76 x 128 ->   76 x  76 x 128 0.189 BF\n","  50 conv    128       3 x 3/ 1     76 x  76 x 128 ->   76 x  76 x 128 1.703 BF\n","  51 Shortcut Layer: 48,  wt = 0, wn = 0, outputs:  76 x  76 x 128 0.001 BF\n","  52 conv    128       1 x 1/ 1     76 x  76 x 128 ->   76 x  76 x 128 0.189 BF\n","  53 route  52 25 \t                           ->   76 x  76 x 256 \n","  54 conv    256       1 x 1/ 1     76 x  76 x 256 ->   76 x  76 x 256 0.757 BF\n","  55 conv    512       3 x 3/ 2     76 x  76 x 256 ->   38 x  38 x 512 3.407 BF\n","  56 conv    256       1 x 1/ 1     38 x  38 x 512 ->   38 x  38 x 256 0.379 BF\n","  57 route  55 \t\t                           ->   38 x  38 x 512 \n","  58 conv    256       1 x 1/ 1     38 x  38 x 512 ->   38 x  38 x 256 0.379 BF\n","  59 conv    256       1 x 1/ 1     38 x  38 x 256 ->   38 x  38 x 256 0.189 BF\n","  60 conv    256       3 x 3/ 1     38 x  38 x 256 ->   38 x  38 x 256 1.703 BF\n","  61 Shortcut Layer: 58,  wt = 0, wn = 0, outputs:  38 x  38 x 256 0.000 BF\n","  62 conv    256       1 x 1/ 1     38 x  38 x 256 ->   38 x  38 x 256 0.189 BF\n","  63 conv    256       3 x 3/ 1     38 x  38 x 256 ->   38 x  38 x 256 1.703 BF\n","  64 Shortcut Layer: 61,  wt = 0, wn = 0, outputs:  38 x  38 x 256 0.000 BF\n","  65 conv    256       1 x 1/ 1     38 x  38 x 256 ->   38 x  38 x 256 0.189 BF\n","  66 conv    256       3 x 3/ 1     38 x  38 x 256 ->   38 x  38 x 256 1.703 BF\n","  67 Shortcut Layer: 64,  wt = 0, wn = 0, outputs:  38 x  38 x 256 0.000 BF\n","  68 conv    256       1 x 1/ 1     38 x  38 x 256 ->   38 x  38 x 256 0.189 BF\n","  69 conv    256       3 x 3/ 1     38 x  38 x 256 ->   38 x  38 x 256 1.703 BF\n","  70 Shortcut Layer: 67,  wt = 0, wn = 0, outputs:  38 x  38 x 256 0.000 BF\n","  71 conv    256       1 x 1/ 1     38 x  38 x 256 ->   38 x  38 x 256 0.189 BF\n","  72 conv    256       3 x 3/ 1     38 x  38 x 256 ->   38 x  38 x 256 1.703 BF\n","  73 Shortcut Layer: 70,  wt = 0, wn = 0, outputs:  38 x  38 x 256 0.000 BF\n","  74 conv    256       1 x 1/ 1     38 x  38 x 256 ->   38 x  38 x 256 0.189 BF\n","  75 conv    256       3 x 3/ 1     38 x  38 x 256 ->   38 x  38 x 256 1.703 BF\n","  76 Shortcut Layer: 73,  wt = 0, wn = 0, outputs:  38 x  38 x 256 0.000 BF\n","  77 conv    256       1 x 1/ 1     38 x  38 x 256 ->   38 x  38 x 256 0.189 BF\n","  78 conv    256       3 x 3/ 1     38 x  38 x 256 ->   38 x  38 x 256 1.703 BF\n","  79 Shortcut Layer: 76,  wt = 0, wn = 0, outputs:  38 x  38 x 256 0.000 BF\n","  80 conv    256       1 x 1/ 1     38 x  38 x 256 ->   38 x  38 x 256 0.189 BF\n","  81 conv    256       3 x 3/ 1     38 x  38 x 256 ->   38 x  38 x 256 1.703 BF\n","  82 Shortcut Layer: 79,  wt = 0, wn = 0, outputs:  38 x  38 x 256 0.000 BF\n","  83 conv    256       1 x 1/ 1     38 x  38 x 256 ->   38 x  38 x 256 0.189 BF\n","  84 route  83 56 \t                           ->   38 x  38 x 512 \n","  85 conv    512       1 x 1/ 1     38 x  38 x 512 ->   38 x  38 x 512 0.757 BF\n","  86 conv   1024       3 x 3/ 2     38 x  38 x 512 ->   19 x  19 x1024 3.407 BF\n","  87 conv    512       1 x 1/ 1     19 x  19 x1024 ->   19 x  19 x 512 0.379 BF\n","  88 route  86 \t\t                           ->   19 x  19 x1024 \n","  89 conv    512       1 x 1/ 1     19 x  19 x1024 ->   19 x  19 x 512 0.379 BF\n","  90 conv    512       1 x 1/ 1     19 x  19 x 512 ->   19 x  19 x 512 0.189 BF\n","  91 conv    512       3 x 3/ 1     19 x  19 x 512 ->   19 x  19 x 512 1.703 BF\n","  92 Shortcut Layer: 89,  wt = 0, wn = 0, outputs:  19 x  19 x 512 0.000 BF\n","  93 conv    512       1 x 1/ 1     19 x  19 x 512 ->   19 x  19 x 512 0.189 BF\n","  94 conv    512       3 x 3/ 1     19 x  19 x 512 ->   19 x  19 x 512 1.703 BF\n","  95 Shortcut Layer: 92,  wt = 0, wn = 0, outputs:  19 x  19 x 512 0.000 BF\n","  96 conv    512       1 x 1/ 1     19 x  19 x 512 ->   19 x  19 x 512 0.189 BF\n","  97 conv    512       3 x 3/ 1     19 x  19 x 512 ->   19 x  19 x 512 1.703 BF\n","  98 Shortcut Layer: 95,  wt = 0, wn = 0, outputs:  19 x  19 x 512 0.000 BF\n","  99 conv    512       1 x 1/ 1     19 x  19 x 512 ->   19 x  19 x 512 0.189 BF\n"," 100 conv    512       3 x 3/ 1     19 x  19 x 512 ->   19 x  19 x 512 1.703 BF\n"," 101 Shortcut Layer: 98,  wt = 0, wn = 0, outputs:  19 x  19 x 512 0.000 BF\n"," 102 conv    512       1 x 1/ 1     19 x  19 x 512 ->   19 x  19 x 512 0.189 BF\n"," 103 route  102 87 \t                           ->   19 x  19 x1024 \n"," 104 conv   1024       1 x 1/ 1     19 x  19 x1024 ->   19 x  19 x1024 0.757 BF\n"," 105 conv    512       1 x 1/ 1     19 x  19 x1024 ->   19 x  19 x 512 0.379 BF\n"," 106 conv   1024       3 x 3/ 1     19 x  19 x 512 ->   19 x  19 x1024 3.407 BF\n"," 107 conv    512       1 x 1/ 1     19 x  19 x1024 ->   19 x  19 x 512 0.379 BF\n"," 108 max                5x 5/ 1     19 x  19 x 512 ->   19 x  19 x 512 0.005 BF\n"," 109 route  107 \t\t                           ->   19 x  19 x 512 \n"," 110 max                9x 9/ 1     19 x  19 x 512 ->   19 x  19 x 512 0.015 BF\n"," 111 route  107 \t\t                           ->   19 x  19 x 512 \n"," 112 max               13x13/ 1     19 x  19 x 512 ->   19 x  19 x 512 0.031 BF\n"," 113 route  112 110 108 107 \t                   ->   19 x  19 x2048 \n"," 114 conv    512       1 x 1/ 1     19 x  19 x2048 ->   19 x  19 x 512 0.757 BF\n"," 115 conv   1024       3 x 3/ 1     19 x  19 x 512 ->   19 x  19 x1024 3.407 BF\n"," 116 conv    512       1 x 1/ 1     19 x  19 x1024 ->   19 x  19 x 512 0.379 BF\n"," 117 conv    256       1 x 1/ 1     19 x  19 x 512 ->   19 x  19 x 256 0.095 BF\n"," 118 upsample                 2x    19 x  19 x 256 ->   38 x  38 x 256\n"," 119 route  85 \t\t                           ->   38 x  38 x 512 \n"," 120 conv    256       1 x 1/ 1     38 x  38 x 512 ->   38 x  38 x 256 0.379 BF\n"," 121 route  120 118 \t                           ->   38 x  38 x 512 \n"," 122 conv    256       1 x 1/ 1     38 x  38 x 512 ->   38 x  38 x 256 0.379 BF\n"," 123 conv    512       3 x 3/ 1     38 x  38 x 256 ->   38 x  38 x 512 3.407 BF\n"," 124 conv    256       1 x 1/ 1     38 x  38 x 512 ->   38 x  38 x 256 0.379 BF\n"," 125 conv    512       3 x 3/ 1     38 x  38 x 256 ->   38 x  38 x 512 3.407 BF\n"," 126 conv    256       1 x 1/ 1     38 x  38 x 512 ->   38 x  38 x 256 0.379 BF\n"," 127 conv    128       1 x 1/ 1     38 x  38 x 256 ->   38 x  38 x 128 0.095 BF\n"," 128 upsample                 2x    38 x  38 x 128 ->   76 x  76 x 128\n"," 129 route  54 \t\t                           ->   76 x  76 x 256 \n"," 130 conv    128       1 x 1/ 1     76 x  76 x 256 ->   76 x  76 x 128 0.379 BF\n"," 131 route  130 128 \t                           ->   76 x  76 x 256 \n"," 132 conv    128       1 x 1/ 1     76 x  76 x 256 ->   76 x  76 x 128 0.379 BF\n"," 133 conv    256       3 x 3/ 1     76 x  76 x 128 ->   76 x  76 x 256 3.407 BF\n"," 134 conv    128       1 x 1/ 1     76 x  76 x 256 ->   76 x  76 x 128 0.379 BF\n"," 135 conv    256       3 x 3/ 1     76 x  76 x 128 ->   76 x  76 x 256 3.407 BF\n"," 136 conv    128       1 x 1/ 1     76 x  76 x 256 ->   76 x  76 x 128 0.379 BF\n"," 137 conv    256       3 x 3/ 1     76 x  76 x 128 ->   76 x  76 x 256 3.407 BF\n"," 138 conv    255       1 x 1/ 1     76 x  76 x 256 ->   76 x  76 x 255 0.754 BF\n"," 139 yolo\n","[yolo] params: iou loss: ciou (4), iou_norm: 0.07, obj_norm: 1.00, cls_norm: 1.00, delta_norm: 1.00, scale_x_y: 1.20\n","nms_kind: greedynms (1), beta = 0.600000 \n"," 140 route  136 \t\t                           ->   76 x  76 x 128 \n"," 141 conv    256       3 x 3/ 2     76 x  76 x 128 ->   38 x  38 x 256 0.852 BF\n"," 142 route  141 126 \t                           ->   38 x  38 x 512 \n"," 143 conv    256       1 x 1/ 1     38 x  38 x 512 ->   38 x  38 x 256 0.379 BF\n"," 144 conv    512       3 x 3/ 1     38 x  38 x 256 ->   38 x  38 x 512 3.407 BF\n"," 145 conv    256       1 x 1/ 1     38 x  38 x 512 ->   38 x  38 x 256 0.379 BF\n"," 146 conv    512       3 x 3/ 1     38 x  38 x 256 ->   38 x  38 x 512 3.407 BF\n"," 147 conv    256       1 x 1/ 1     38 x  38 x 512 ->   38 x  38 x 256 0.379 BF\n"," 148 conv    512       3 x 3/ 1     38 x  38 x 256 ->   38 x  38 x 512 3.407 BF\n"," 149 conv    255       1 x 1/ 1     38 x  38 x 512 ->   38 x  38 x 255 0.377 BF\n"," 150 yolo\n","[yolo] params: iou loss: ciou (4), iou_norm: 0.07, obj_norm: 1.00, cls_norm: 1.00, delta_norm: 1.00, scale_x_y: 1.10\n","nms_kind: greedynms (1), beta = 0.600000 \n"," 151 route  147 \t\t                           ->   38 x  38 x 256 \n"," 152 conv    512       3 x 3/ 2     38 x  38 x 256 ->   19 x  19 x 512 0.852 BF\n"," 153 route  152 116 \t                           ->   19 x  19 x1024 \n"," 154 conv    512       1 x 1/ 1     19 x  19 x1024 ->   19 x  19 x 512 0.379 BF\n"," 155 conv   1024       3 x 3/ 1     19 x  19 x 512 ->   19 x  19 x1024 3.407 BF\n"," 156 conv    512       1 x 1/ 1     19 x  19 x1024 ->   19 x  19 x 512 0.379 BF\n"," 157 conv   1024       3 x 3/ 1     19 x  19 x 512 ->   19 x  19 x1024 3.407 BF\n"," 158 conv    512       1 x 1/ 1     19 x  19 x1024 ->   19 x  19 x 512 0.379 BF\n"," 159 conv   1024       3 x 3/ 1     19 x  19 x 512 ->   19 x  19 x1024 3.407 BF\n"," 160 conv    255       1 x 1/ 1     19 x  19 x1024 ->   19 x  19 x 255 0.189 BF\n"," 161 yolo\n","[yolo] params: iou loss: ciou (4), iou_norm: 0.07, obj_norm: 1.00, cls_norm: 1.00, delta_norm: 1.00, scale_x_y: 1.05\n","nms_kind: greedynms (1), beta = 0.600000 \n","Total BFLOPS 128.459 \n","avg_outputs = 1068395 \n","Loading weights from yolov4.weights...\n"," seen 64, trained: 32032 K-images (500 Kilo-batches_64) \n","Done! Loa
…
